regressor.onnx (onnx, 994690 bytes, 39 tensors)

model.model.initial.0.weight f4 [64, 19, 2]
0	0xbd12b78b	-0.03581957
1	0x3d7caeef	0.061690267
2	0xbd5c8c22	-0.05384458
3	0xbcb2507c	-0.021766894
4	0xbd2f4629	-0.04279152
5	0xbe45b655	-0.19307835
6	0xbce2aa7f	-0.02766919
7	0x3e24790c	0.160618
8	0xbcc7d8b8	-0.024395332
9	0xbe373329	-0.1789061
10	0x3ddfb3d0	0.109229684
11	0x3ba83933	0.005133772
12	0xbe39af42	-0.18133262
13	0xbe132a75	-0.14371665
14	0x3ce9111c	0.028450541
15	0xbbac5f61	-0.0052603935
16	0x3dd77cd4	0.10521856
17	0x3e21bb63	0.15794139
18	0x3c7ca945	0.015421216
19	0xbd4e5819	-0.050376985
20	0xbdb7467b	-0.0894899
21	0x3e03e0b8	0.12878692
22	0x3d78a11f	0.060700532
23	0xbca01d2e	-0.019545164
24	0xbd393261	-0.04521406
25	0xbdfdb722	-0.123884454
26	0xbda7c4d8	-0.08191842
27	0x3ddca7e3	0.10774209
28	0x3d98d5a3	0.07462623
29	0xbc21d72b	-0.00987796
30	0x3d013ade	0.03155028
31	0x3e5660d9	0.20935382
32	0xbb6f47f1	-0.0036511386
33	0xbba6bd99	-0.00508852
34	0x3d000fc2	0.031265028
35	0x3dfc9b46	0.123343036
36	0x3de14688	0.10999781
37	0x3defb140	0.1170373
38	0x3d76057f	0.060063835
39	0x3d091186	0.033463977
40	0xbda3c467	-0.07996445
41	0x3d9185b6	0.071055815
42	0x3dd8a8da	0.10579081
43	0xbe31abeb	-0.17350738
44	0x3cf114e4	0.029428907
45	0x3c814af5	0.015782813
46	0x3d86180f	0.065475576
47	0x3dd16b0e	0.10225497
48	0xbe14381f	-0.14474533
49	0x3d78aea7	0.060713436
50	0x3e0d055a	0.13771573
51	0x3d9ce298	0.07660407
52	0xbd64b39b	-0.055835348
53	0xbcdc6993	-0.02690581
54	0x3d36a89a	0.044594385
55	0xbd8f2ec2	-0.0699134
56	0x3cd3770d	0.025813604
57	0xbd8b07e7	-0.067886166
58	0x3bcf78b8	0.0063315295
59	0x3e237cae	0.1596553
60	0x3baf9ed1	0.0053595086
61	0xbc8c388e	-0.017116811
62	0x3db74971	0.08949555
63	0xbd4288e2	-0.047493823
64	0x3e17bd29	0.14818253
65	0xbe0a382c	-0.1349799
66	0xbd68f9bc	-0.05687879
67	0x3dd6d77c	0.10490319
68	0xbcf3c7b0	-0.029758304
69	0x3c7c0f6d	0.015384537
70	0x3dba805a	0.09106512
71	0xbd5be4f5	-0.053685147
72	0x3b8830ce	0.0041562086
73	0x3cc86c24	0.024465628
74	0x3da5170c	0.080610365
75	0x3e0483ce	0.12940904
76	0xbd683df0	-0.056699693
77	0xbe02f430	-0.12788463
78	0xbc66eed8	-0.014095031
79	0x3d5af24b	0.053453725
80	0x3e0057a7	0.12533437
81	0xbc705adc	-0.0146701
82	0xbcbf2e6d	-0.023337567
83	0x3cc52d99	0.024069594
84	0xbdb32146	-0.08746581
85	0xbde1d436	-0.11026804
86	0xbde9e7a0	-0.11421132
87	0x3d4bec32	0.0497858
88	0x3dbf54a2	0.09342314
89	0x3dd2d34c	0.10294208
90	0xbda0862f	-0.078380935
91	0x3dc78d7b	0.09743782
92	0xbde2b55e	-0.11069749
93	0x3cad50f1	0.02115676
94	0x3e048e3f	0.12944888
95	0xbd204858	-0.039131492
96	0x3e076596	0.13222346
97	0xbe110513	-0.14162092
98	0x3e2f3246	0.17109022
99	0x3dbb3d61	0.091425665
100	0x3d1ddbe4	0.038539782
101	0x3d3f0dca	0.04664401
102	0xbd160774	-0.0366282
103	0x3e23c257	0.15992104
104	0x3e0be713	0.13662367
105	0x3da55070	0.08071983
106	0xbdbebd72	-0.093134776
107	0x3e02c42a	0.12770143
108	0xbd91d509	-0.07120711
109	0xbba587fa	-0.00505161
110	0xbe49bd63	-0.19701152
111	0xbd98ad6c	-0.074549526
112	0xbe1e9fb6	-0.15490612
113	0x3dffde70	0.124935985
114	0x3dfaacc0	0.12239981
115	0x3cedf07b	0.029045334
116	0x3de0c11d	0.109743334
117	0xbdae4ad6	-0.085103676
118	0xbd1088a9	-0.03528658
119	0x3c6b720e	0.0143704545
120	0x3d474987	0.048654106
121	0xbdc4e934	-0.096147925
122	0x3cb9ca4c	0.02267947
123	0xb92061f6	-0.00015295282
124	0xbddbb4fd	-0.1072788
125	0xbd40ba0e	-0.047052436
126	0xbd9fab9e	-0.07796405
127	0xbd5a116f	-0.053239282
128	0xbd87ac17	-0.066246204
129	0xbd8ea304	-0.069646865
130	0x3e165a41	0.14682867
131	0x3ddc3f93	0.10754313
132	0x3cb4f649	0.022090094
133	0xbce91092	-0.028450284
134	0x3dd37db0	0.10326707
135	0x3d015aa1	0.03158057
136	0x3e25f4e8	0.16206706
137	0xbdc8e41f	-0.09809136
138	0xbc898d01	-0.016790869
139	0x3deca356	0.11554591
140	0xbde8c759	-0.113661475
141	0xbddd44c1	-0.108041294
142	0x3dcc69cd	0.099811174
143	0xbd112b24	-0.035441533
144	0x3cb3e7e8	0.021961167
145	0x3d2dd03c	0.042434916
146	0x3e08988b	0.1333944
147	0x3e490d83	0.1963406
148	0x3dcc5c54	0.09978548
149	0x3d64c92e	0.055855922
150	0xbd870042	-0.06591846
151	0xbd294a61	-0.0413307
152	0x3de5cd4a	0.112207964
153	0xbdfb64ec	-0.12275109
154	0x3c57e342	0.013176741
155	0x3d5f4267	0.054506686
156	0x3e2d374f	0.1691563
157	0xbd6262a6	-0.05526986
158	0x3e32df36	0.1746796
159	0x3ca49d81	0.020094635
160	0x3e1206d4	0.14260417
161	0x3c3741f4	0.011185158
162	0xbd21c829	-0.03949753
163	0x3d6b2b26	0.057414196
164	0xbdb7b85f	-0.08970713
165	0x3dd1c19d	0.10242007
166	0x3d2c468e	0.042059474
167	0xbcaae72f	-0.02086219
168	0x3d1b0c34	0.037853435
169	0x3c43f8c9	0.0119611705
170	0x3d2845ba	0.04108212
171	0xbd2095f1	-0.039205495
172	0xbd8a00a8	-0.067384064
173	0xbde28967	-0.11061364
174	0x3d362da7	0.04447713
175	0xbbba9af4	-0.0056947414
176	0xbd27c47e	-0.040958874
177	0x3d9837ae	0.07432495
178	0xbde4554c	-0.111490816
179	0x3c9e7235	0.019341568
180	0xbd94c95d	-0.072649695
181	0xbdae37fb	-0.08506771
182	0xbda26ae7	-0.07930546
183	0xbd0f7aa4	-0.03502907
184	0xbe38a6de	-0.18032405
185	0xbd35bd1d	-0.044369806
186	0xbe09c56f	-0.13454221
187	0x3c6b5d09	0.014365443
188	0xbe0e970d	-0.13924809
189	0x3e027e29	0.12743439
190	0x3ca00f59	0.019538568
191	0xbc0e0797	-0.008668802
192	0x3e18cfca	0.14923015
193	0x3ac2f376	0.0014873582
194	0xbd707251	-0.05870277
195	0x3d536936	0.05161401
196	0x3e19f033	0.15033035
197	0xbe133e96	-0.14379343
198	0x3e40391a	0.18771783
199	0x3e52db37	0.20591436
200	0xbd0e07a4	-0.034675255
201	0xbd46b9c6	-0.04851701
202	0xbe018dee	-0.12651798
203	0xbd57ffcb	-0.052734178
204	0x3e580ba3	0.21098189
205	0xbc1da7cc	-0.009622525
206	0x3d8e4410	0.06946576
207	0xbd73ac92	-0.059490748
208	0xbce1832e	-0.027528372
209	0xbd3f7a62	-0.046747573
210	0xbd961c5e	-0.07329629
211	0x3dc6ba05	0.09703449
212	0x3e12d3d1	0.14338614
213	0xbd535517	-0.05159482
214	0x3c81a66a	0.015826423
215	0xbd2cd25d	-0.042192806
216	0xbd9f2e15	-0.07772461
217	0xbdc4fc50	-0.09618437
218	0xbdbf34ce	-0.093362436
219	0xbdccb9e5	-0.09996394
220	0xbca14358	-0.019685432
221	0x3d93b852	0.07212891
222	0xbd274ba1	-0.04084361
223	0x3e2c1f08	0.16808712
224	0x3de3325b	0.11093589
225	0x3da54802	0.08070375
226	0x3dedcbed	0.116111614
227	0x3e01a9b6	0.12662396
228	0x3e0a8734	0.13528138
229	0xbcbf24d2	-0.023332987
230	0xbdc9a728	-0.09846336
231	0xbdfccb91	-0.12343515
232	0xbc994ed7	-0.018714352
233	0x3de6be1f	0.112667315
234	0xbe2efcc0	-0.17088604
235	0x3e01cf00	0.1267662
236	0x3db4911c	0.0881674
237	0x3e1b1c81	0.15147592
238	0x3d189523	0.037251603
239	0x3db1412f	0.08655011
240	0x3d473be0	0.048641086
241	0x3e0b4525	0.13600595
242	0xbdb88627	-0.090099625
243	0xbd834279	-0.06409163
244	0xbd77fd74	-0.060544446
245	0x3d8f4c04	0.06996921
246	0x3d4ca79d	0.049964536
247	0xbda37692	-0.079816
248	0x3d94a9ee	0.07258974
249	0x3d1b4063	0.0379032
250	0x3d44fe7a	0.04809425
251	0xbe0d1ee4	-0.13781315
252	0xbd98e00f	-0.07464611
253	0xbd8af35d	-0.06784699
254	0x3d5c6d8a	0.053815402
255	0xbe0f1145	-0.13971432

model.model.initial.0.bias f4 [64]
0	0xbdb59724	-0.088667184
1	0x3b3f82e1	0.0029222297
2	0x3dac7f7f	0.084227555
3	0xbc0d34e6	-0.008618569
4	0x3e1225c3	0.14272217
5	0x3dce773c	0.10081336
6	0x3d13278d	0.03592639
7	0xbdfcfad8	-0.12352532
8	0xbc87528a	-0.01651885
9	0x3de9de5a	0.11419363
10	0x3dddb244	0.10825017
11	0xbd458303	-0.048220646
12	0x3de49a35	0.11162225
13	0xbe04c3aa	-0.12965265
14	0x3d1b757e	0.037953846
15	0x3db25973	0.08708467
16	0x3dde0eeb	0.10842689
17	0x3e05b9ec	0.13059205
18	0xbd840bf4	-0.064475924
19	0x3dc288db	0.09498759
20	0x3e0eac3d	0.13932891
21	0xbe06434c	-0.13111609
22	0xbc8f03e4	-0.01745791
23	0x3e0a2cb5	0.13493617
24	0xbd9045d5	-0.070445694
25	0x3de5cff2	0.11221303
26	0x3d7e051e	0.0620166
27	0x3ded720b	0.115940176
28	0x3cf555a8	0.02994807
29	0xbcb563c0	-0.022142291
30	0xbdc7a8a9	-0.09748966
31	0xbab65f74	-0.0013913945
32	0xbd9271d3	-0.071506165
33	0x3dddbc23	0.108269
34	0x3e23a7c6	0.15981969
35	0xbd8698be	-0.06572102
36	0xbc4e75af	-0.0126013
37	0xbb8b5308	-0.0042518415
38	0xbdb8dc33	-0.09026375
39	0x3c0bef26	0.008540904
40	0x3dd3170b	0.103071295
41	0x3de1bd48	0.11022431
42	0x3cfd4f25	0.030921528
43	0xbda13fc0	-0.078734875
44	0x3c30b4ce	0.010785295
45	0x3e75d522	0.24007085
46	0x3d7d8bfa	0.06190107
47	0xbdd5edeb	-0.1044577
48	0x3da97bff	0.082756035
49	0xbe223f9f	-0.15844582
50	0xbdcec60f	-0.100963704
51	0x3e0b21da	0.13587132
52	0xbb1baa3a	-0.0023752586
53	0xbd21ae8e	-0.03947311
54	0xbe03330e	-0.12812445
55	0xbd5e0234	-0.05420132
56	0x3e15435f	0.14576481
57	0xbe1b20bf	-0.1514921
58	0x3d3d214e	0.04617434
59	0xbd6d97cd	-0.058006097
60	0xbdd1545a	-0.10221167
61	0x3d72030e	0.059084944
62	0x3e11292e	0.14175865
63	0xbd1f8d4c	-0.03895311

model.model.encoder.layers.0.self_attn.in_proj_bias f4 [192]
0	0xbd601cd6	-0.054715
1	0x3dfaa134	0.12237778
2	0x3d498e4d	0.049207974
3	0xbad3dce9	-0.0016163859
4	0x3804b16b	3.1636486e-05
5	0xbca6d25f	-0.020363985
6	0xbcb4aab7	-0.02205406
7	0xbc964f4e	-0.018348362
8	0xbd3320fe	-0.043732636
9	0x3d02cb16	0.03193196
10	0x3b26795b	0.0025401923
11	0x3c249d26	0.010047233
12	0x3d08da56	0.033411346
13	0xbda8608f	-0.08221542
14	0xbd31ed54	-0.043439224
15	0xbcc257f4	-0.02372358
16	0xbccff8d3	-0.025387203
17	0x3caadcdb	0.020857265
18	0xbcba56d6	-0.022746485
19	0x3c805dd2	0.015669737
20	0xbdadc0d4	-0.08484045
21	0x3d538e2b	0.051649254
22	0xbad42f8f	-0.001618849
23	0xbd1f677c	-0.03891705
24	0x3cf1cd6a	0.029516894
25	0xbc936e0b	-0.017996809
26	0xbd082842	-0.033241518
27	0xbc92a960	-0.01790303
28	0xbccb9673	-0.024852013
29	0xbd6d5344	-0.057940736
30	0xbdf8175d	-0.12113831
31	0x3c234b13	0.00996663
32	0xbd6aca3a	-0.057321765
33	0x3dc4e66b	0.09614261
34	0xbd5d48d4	-0.054024532
35	0x3c5c751d	0.013455656
36	0x3d413c3b	0.04717658
37	0x3d49fe8c	0.04931502
38	0x3d2e8f88	0.04261735
39	0x3b484a2a	0.0030561783
40	0x3d6e9875	0.058250863
41	0xbd1c1fc0	-0.038116217
42	0xbdc56de9	-0.09640104
43	0xbcb8f372	-0.022577021
44	0x3ce9f17c	0.028557532
45	0xbe00bd1d	-0.12572141
46	0x3d1f8367	0.038943674
47	0x3bc8d050	0.0061283484
48	0x3d2f4bf9	0.042797063
49	0x3dce36b0	0.100690246
50	0x3d06b6ae	0.03288906
51	0xbc39c81c	-0.011339214
52	0xbd01ad8a	-0.03165964
53	0x3cb58b84	0.022161253
54	0x3cf2a3ca	0.029619116
55	0xbd2b46b5	-0.04181548
56	0xbb5c54f7	-0.003361998
57	0x3beac49a	0.00716455
58	0xbcaff082	-0.021476988
59	0xbd898bc8	-0.06716114
60	0xbd5a317b	-0.053269845
61	0xbd94f27a	-0.07272811
62	0x3c9579fc	0.018246643
63	0x3ca905bf	0.020632623
64	0xb767c87b	-1.3815351e-05
65	0x387d32e5	6.03673e-05
66	0x3866c984	5.502395e-05
67	0x37f273ac	2.8902512e-05
68	0xb7020e31	-7.751908e-06
69	0xb7a2affc	-1.9393854e-05
70	0xb8af90e2	-8.371637e-05
71	0x3868adb9	5.5474902e-05
72	0xb806209e	-3.1978467e-05
73	0x3721bfc2	9.640995e-06
74	0xb6175607	-2.2550828e-06
75	0xb5b4898e	-1.3451079e-06
76	0xb6010ba5	-1.9229276e-06
77	0xb88c33df	-6.685382e-05
78	0xb8183eec	-3.6298225e-05
79	0xb83abb92	-4.4520544e-05
80	0xb9038359	-0.00012542064
81	0xb89647c5	-7.1659255e-05
82	0x38b7f4e8	8.771737e-05
83	0x374d3dea	1.2233368e-05
84	0xb8f6e312	-0.00011772489
85	0x389ad8d9	7.383683e-05
86	0x38d98fcf	0.00010374153
87	0xb9eef8e5	-0.00045580338
88	0x38d280ea	0.000100375924
89	0xb857483c	-5.1327268e-05
90	0xb969705f	-0.00022262473
91	0xb8b63420	-8.688145e-05
92	0xb89c9a0a	-7.467352e-05
93	0xb963ad5b	-0.00021712987
94	0x3a007f89	0.0004901817
95	0xb8cba2e3	-9.710134e-05
96	0x3884981e	6.3225845e-05
97	0xb9904599	-0.00027517675
98	0xb5069852	-5.0140545e-07
99	0x37915de6	1.7329072e-05
100	0xb8dd82bb	-0.00010562452
101	0x384cce56	4.8829555e-05
102	0x391668ea	0.00014344198
103	0x377702bf	1.4722987e-05
104	0x38d9a776	0.00010378558
105	0x38b83743	8.784097e-05
106	0x38eab518	0.00011191721
107	0x39021d15	0.000124086
108	0x390f4502	0.0001366325
109	0xb9996b9b	-0.00029262606
110	0xb8cc7237	-9.748752e-05
111	0x38c7b64c	9.523015e-05
112	0x39a3c1f2	0.00031234283
113	0x3961400d	0.00021481533
114	0x39800b7f	0.00024422628
115	0xb957aa09	-0.00020567341
116	0xb8f7b6a8	-0.000118119
117	0x38d7e5ef	0.000102948274
118	0x38c6d919	9.481813e-05
119	0xb99858ef	-0.0002905796
120	0xb8c22095	-9.25671e-05
121	0xb8598f4a	-5.187028e-05
122	0xb8c686c9	-9.4664814e-05
123	0xb91a068f	-0.00014689028
124	0xb917dcb9	-0.00014482708
125	0xb963397a	-0.00021669819
126	0x38b3cd28	8.5735985e-05
127	0x38907c28	6.889581e-05
128	0xba717c39	-0.0009211931
129	0xbc931834	-0.017955877
130	0xb684511f	-3.9433503e-06
131	0x3acd2fda	0.001565452
132	0xbb719b05	-0.003686608
133	0xba5bb71e	-0.00083814736
134	0xbc0e95a1	-0.0087026665
135	0xbbdbefe0	-0.006711945
136	0x3b4b25b5	0.0030997817
137	0x3b5609cf	0.0032659655
138	0x3b6afde6	0.0035856902
139	0x3a465c22	0.00075668294
140	0x3b488126	0.0030594557
141	0x3b8abf92	0.0042342627
142	0xba6e4dba	-0.00090905617
143	0xbc555e46	-0.013022965
144	0x3c45a194	0.012062449
145	0x37a1ff1a	1.9311487e-05
146	0xbc367c47	-0.011138028
147	0x3a9fafe2	0.0012183154
148	0xbb765b5d	-0.0037591078
149	0xbb26b6b3	-0.0025438487
150	0x3c44724d	0.011990142
151	0xbae7e74b	-0.0017692832
152	0x3a437ea6	0.0007457532
153	0x3a429c04	0.0007423761
154	0x3b1e143d	0.002412095
155	0xb8dfdfb2	-0.00010675135
156	0x3c0d9138	0.00864058
157	0xbb5364d1	-0.0032256136
158	0xbbf82ccb	-0.007573699
159	0xbaa455fb	-0.0012537831
160	0xbac3e11f	-0.0014944411
161	0xb9877ff5	-0.00025844542
162	0x3c219c1f	0.009863882
163	0xbc8efaf7	-0.017453654
164	0xbc0621d9	-0.008186781
165	0xbb807549	-0.0039202315
166	0x3a7fad41	0.0009753295
167	0xbb063155	-0.0020476182
168	0xbc1a6713	-0.009423989
169	0xbad36799	-0.0016128897
170	0x3c6c6f2d	0.014430803
171	0xbbadc58f	-0.005303092
172	0x3b236c8e	0.002493653
173	0xbc5de672	-0.013543712
174	0xbb88be1d	-0.004173054
175	0xba205d38	-0.00061174063
176	0xb9c7d4d7	-0.00038114816
177	0xbc1d3a2f	-0.009596392
178	0x3a998262	0.0011711831
179	0x3c16cb69	0.00920377
180	0xbad8b019	-0.0016531973
181	0x3a1c6a24	0.0005966744
182	0x3bdf043c	0.0068059247
183	0xb9a556c1	-0.0003153589
184	0x3c2b0752	0.010438757
185	0xbb5c0b23	-0.0033575974
186	0xbb701075	-0.0036630903
187	0xbb5a7ec4	-0.0033339718
188	0xbb5f31aa	-0.0034056702
189	0x3c301d37	0.010749153
190	0xbb9caef7	-0.0047815996
191	0xbbcbf67a	-0.0062244507

model.model.encoder.layers.0.self_attn.out_proj.weight f4 [64, 64]
0	0x3d92286b	0.07136615
1	0xbd8bb588	-0.06821734
2	0xbd9008a7	-0.070329
3	0x3d820c51	0.063500054
4	0xbdacde51	-0.08440841
5	0x3d87fbae	0.06639801
6	0xbd9e2b04	-0.07723048
7	0x3df1800b	0.117920004
8	0x3da278be	0.07933186
9	0x3d9b0ad4	0.07570425
10	0x3d49ea2f	0.0492956
11	0x3d2a5e1f	0.041593667
12	0xbdc688a6	-0.09694032
13	0x3dafc9d2	0.08583416
14	0xbbbeb706	-0.005820158
15	0xbdc360e5	-0.095399655
16	0xbd46884b	-0.048469823
17	0xbda57990	-0.08079827
18	0xbd086957	-0.033303585
19	0xbc97c512	-0.018526588
20	0x3b9984e4	0.0046850313
21	0x3da8db25	0.082449235
22	0xbdc2f253	-0.09518876
23	0x3d91166b	0.07084354
24	0xbc886762	-0.01665086
25	0x3d9fbf6b	0.07800182
26	0x3cffce91	0.031226428
27	0xbd9fafde	-0.07797216
28	0xbcc4319e	-0.02394944
29	0xbdefdc05	-0.11711887
30	0x3e0c1c28	0.13682616
31	0xbd2125b2	-0.03934259
32	0xbe1c6b1a	-0.15275231
33	0xbd0ff434	-0.035145
34	0x3c355514	0.0110676475
35	0xbde6de58	-0.112728775
36	0xbc037a0d	-0.008024705
37	0xbdc31902	-0.09526254
38	0x3c21ef44	0.0098837055
39	0xbcfe0fc4	-0.031013377
40	0xbd50ce26	-0.05097785
41	0x3cbf19cb	0.023327729
42	0xbd7e3eca	-0.0620716
43	0xbc2e3a96	-0.010634085
44	0x3c344df3	0.011004913
45	0xbd6a4af4	-0.057200387
46	0x3d0bccb3	0.034130763
47	0x3ce9ed14	0.02855543
48	0xbad036f8	-0.0015885523
49	0xbc65e5d8	-0.01403185
50	0x3da2ab04	0.07942775
51	0x3d2c75eb	0.042104643
52	0xbdb25337	-0.08707278
53	0x3d8d85b5	0.06910268
54	0xbdcf496b	-0.10121425
55	0xbc9b012a	-0.018921454
56	0xbdc8ac4c	-0.09798488
57	0xbb226cf3	-0.0024784177
58	0xbd18afdd	-0.03727709
59	0xbdb34717	-0.08753794
60	0xbbb7046d	-0.0055852444
61	0x3d435be2	0.04769505
62	0xbdce73f2	-0.100807086
63	0xbc32f62c	-0.01092295
64	0x3d8d5299	0.0690052
65	0xbcf72eec	-0.030173741
66	0x3d603f55	0.054747898
67	0x3d995041	0.0748601
68	0xbda6ddbe	-0.08147763
69	0x3ca00d80	0.019537687
70	0xbc349d15	-0.011023779
71	0xbd2c32c0	-0.042040586
72	0x3d99ab81	0.07503415
73	0x3c9220fe	0.017837998
74	0x3dc04ceb	0.09389671
75	0x3d37517f	0.044755455
76	0xbd59cf2a	-0.053176083
77	0x3da2b6bd	0.07945011
78	0xbd8029c3	-0.062579654
79	0x3dea60b9	0.1144423
80	0x3dd4f2be	0.10397862
81	0xbdaf4b2b	-0.08559259
82	0xbd1f1f79	-0.038848374
83	0xbdb12e00	-0.08651352
84	0x3d4f9ac5	0.05068471
85	0x3de638b0	0.11241281
86	0x3dd2a30c	0.10285005
87	0x3d847740	0.06468058
88	0xbd80f813	-0.062973164
89	0xbd94ca90	-0.07265198
90	0x3dd3c01c	0.10339376
91	0xbcace57d	-0.021105522
92	0x3dd641e5	0.10461787
93	0xbc4238fc	-0.011854406
94	0x3d8a41b7	0.06750815
95	0xbdc82620	-0.09772897
96	0xbd8a2a6c	-0.067463726
97	0xbc826bd3	-0.015920555
98	0x3c10424e	0.008804871
99	0x3dc42c7b	0.095787965
100	0xbddc3da0	-0.107539415
101	0xbd49da9f	-0.04928076
102	0x3dfe5de2	0.124202505
103	0xbe00b32e	-0.12568352
104	0x3dcd0849	0.10011346
105	0xbdc32b5d	-0.09529755
106	0xbd4c7de4	-0.049924746
107	0x3df3504c	0.1188055
108	0x3d695086	0.05696156
109	0x3dd5d8e0	0.10441756
110	0x3d7514a8	0.059834152
111	0xbdc247a7	-0.09486323
112	0x3d261b9d	0.040553678
113	0x3db75274	0.089512736
114	0x3df801f7	0.1210975
115	0xbc8253eb	-0.015909156
116	0xbd161e72	-0.03665013
117	0xbdbf75b5	-0.09348623
118	0xbd98fc69	-0.074700184
119	0x3c060f45	0.0081823515
120	0x3cb2fa82	0.021847967
121	0x3d871982	0.06596662
122	0xbd70e08d	-0.0588079
123	0x3d9ac279	0.07556624
124	0xbdbe7f47	-0.0930162
125	0xbd09b5ae	-0.03362053
126	0xbc96235c	-0.018327408
127	0x3dd2ac5d	0.10286782
128	0x3dcc6fa9	0.09982235
129	0xbd9084a2	-0.07056548
130	0x3cf2b43c	0.029626958
131	0xbc62173b	-0.013799484
132	0x3dbd8150	0.0925318
133	0x3da46640	0.08027315
134	0x3db27ac4	0.08714822
135	0x3d75f5c3	0.06004883
136	0xbd9b6d90	-0.07589257
137	0x3cc20af5	0.023686865
138	0xbc0e4e11	-0.008685605
139	0xbccb4a68	-0.024815753
140	0xbda4e8df	-0.08052229
141	0x3db76dc4	0.08956483
142	0x3db9de78	0.09075636
143	0x3cf2db5a	0.02964561
144	0xbe001620	-0.1250844
145	0xbc25c1cf	-0.010117008
146	0xbd87f19a	-0.06637879
147	0x3dd5f281	0.104466446
148	0xbc595d48	-0.013266869
149	0x3c2e943c	0.010655459
150	0x3d6b0cfb	0.057385426
151	0xbda1fb39	-0.07909245
152	0x3d86e30c	0.065862745
153	0xbe349226	-0.17633876
154	0xbdc1cb96	-0.09462659
155	0xbd5c303f	-0.05375695
156	0xbd3c908b	-0.046036284
157	0xbdbe881c	-0.093033046
158	0x3dec93d8	0.115516365
159	0x3d4b8975	0.049691636
160	0x3d70b061	0.058761958
161	0x3d5e4168	0.054261595
162	0xbdb00240	-0.08594179
163	0x3dba1b32	0.09087218
164	0x3cd0febb	0.02551209
165	0x3d8768d3	0.066117905
166	0xbd188eec	-0.037245676
167	0x3dbcf146	0.09225707
168	0xbd02442e	-0.031803302
169	0xbd95597a	-0.07292457
170	0x3dbce786	0.09223847
171	0x3e048ecb	0.12945096
172	0x3dde406c	0.10852131
173	0x3bbb9132	0.0057240957
174	0xbda3be05	-0.07995228
175	0x3dc12d54	0.09432474
176	0xbd8d52f5	-0.069005884
177	0x3d6781d6	0.056520306
178	0x3bb1ad9e	0.005422308
179	0xbd889d13	-0.066705845
180	0xbde9b859	-0.11412115
181	0xbcecb0cd	-0.028892899
182	0xbdd9efe6	-0.1064146
183	0xbd27a877	-0.040932145
184	0x3dba7727	0.09104758
185	0x3baed642	0.0053356
186	0xbd2b3d3e	-0.041806452
187	0x3cc06838	0.023487195
188	0xbd5c0f38	-0.05372545
189	0x3dc07c94	0.093987614
190	0xbda8108c	-0.08206281
191	0xbc97346e	-0.018457618
192	0xbd838653	-0.06422105
193	0x3c5b61e8	0.013390042
194	0xbd77b26c	-0.06047289
195	0x3d52909f	0.051407453
196	0x3d161d9a	0.036649324
197	0x3b926f53	0.0044688373
198	0x3db74fdd	0.089507796
199	0x3d0c738d	0.034289885
200	0x3d44e19b	0.048066717
201	0xbdf2828a	-0.118413046
202	0x3c52e874	0.012872804
203	0xbd9be433	-0.07611885
204	0xbdc02eb2	-0.093839064
205	0xbd0b0698	-0.033941835
206	0xbc01f6b3	-0.007932353
207	0xbce39ef1	-0.02778575
208	0x3de8d33f	0.11368417
209	0x3d3d60ed	0.046235014
210	0x3d0653cb	0.032794755
211	0x3bc7a28d	0.0060923756
212	0xbd6d73fd	-0.057971943
213	0xbd7a0ae7	-0.061045554
214	0x3db946c5	0.09046701
215	0x3d605fb3	0.054778766
216	0xbd9761e3	-0.07391717
217	0xbdcde630	-0.100536704
218	0xbd07c41e	-0.033146016
219	0x3d23dd36	0.040005885
220	0xbd5865f8	-0.05283162
221	0xbda50bcf	-0.08058893
222	0x3b8ce70d	0.0043000043
223	0x3d8ddc4c	0.06926784
224	0xbdcf4a5a	-0.10121603
225	0x3d953fd2	0.072875634
226	0xbda86825	-0.08222989
227	0x3d8be695	0.068310894
228	0x3df2449f	0.11829495
229	0xbd438b3c	-0.047740206
230	0x3d87016a	0.065920666
231	0xbdfb5334	-0.12271729
232	0xbdb6cd2c	-0.08925852
233	0x3dd0f5f0	0.10203159
234	0xbd4adbe8	-0.049526125
235	0x3d5b23e8	0.05350104
236	0xbc7c0a88	-0.01538337
237	0x3cabbc8f	0.020963935
238	0x3db19974	0.08671847
239	0xbd98d22f	-0.07461964
240	0xbdfcb07b	-0.123383485
241	0x3bed1856	0.007235567
242	0x3ded9893	0.11601367
243	0x3cb6691c	0.022266917
244	0xbd0161a5	-0.03158726
245	0xbcf28bbf	-0.029607652
246	0x3d44288c	0.04789023
247	0x3ddacce4	0.10683611
248	0x3d44da43	0.048059713
249	0x3deac13a	0.11462636
250	0x3c2f5649	0.010701724
251	0x3ca734b7	0.020410879
252	0xbbbfa53d	-0.0058485554
253	0xbd841a59	-0.06450338
254	0xbd1d79b4	-0.038446143
255	0xbd1adc17	-0.03780755

model.model.encoder.layers.0.self_attn.out_proj.bias f4 [64]
0	0x3b5d910d	0.003380838
1	0x3b1d10a1	0.002396621
2	0xbbb4b4f4	-0.0055147354
3	0x3a20b13c	0.00061299256
4	0x3b9a9266	0.004717159
5	0x3ba83963	0.005133794
6	0xbb33d59d	-0.0027440556
7	0x3bbce191	0.0057641943
8	0xbb7e25de	-0.0038779895
9	0x3c0ca805	0.008584981
10	0xba8a521b	-0.0010553034
11	0xbc2503c8	-0.010071702
12	0x3c50bdc9	0.012740561
13	0x3a68efd5	0.00088858354
14	0x3a182a0b	0.0005804605
15	0x3b6f25aa	0.0036490955
16	0xbc0c0eb7	-0.00854843
17	0xba99c9af	-0.001173308
18	0x3ba8467a	0.0051353546
19	0xbba00a3c	-0.0048840325
20	0x3b97a971	0.0046283533
21	0xbb803abf	-0.003913253
22	0xbba9f2b8	-0.005186405
23	0xba36b8fa	-0.00069703127
24	0x3c840608	0.016116157
25	0xbc34a0b9	-0.011024647
26	0x3b645d7a	0.0034845755
27	0xbc1f9665	-0.009740447
28	0x3c068f71	0.00821291
29	0x3801eda4	3.0977317e-05
30	0xbb44a46c	-0.003000523
31	0x3a911e55	0.0011071662
32	0x3ab44069	0.0013752106
33	0xb9998bd0	-0.00029286603
34	0x3c1912ec	0.00934289
35	0xbc1774f6	-0.009244194
36	0x3b8c810c	0.0042878445
37	0xbc2f052f	-0.010682388
38	0x392af2eb	0.00016302957
39	0xbc0fd225	-0.00877813
40	0x38253756	3.93906e-05
41	0xbca7cd6d	-0.020483697
42	0x3c24bc96	0.010054728
43	0xbc1fc8e3	-0.009752485
44	0x3ae8b0f0	0.0017752927
45	0x397e9a33	0.00024280771
46	0xbb95f316	-0.0045760972
47	0xba927dd5	-0.0011176417
48	0x3a23a90a	0.00062431453
49	0xbbb9a011	-0.0056648334
50	0xbbc53e9e	-0.0060194274
51	0x3b13b3a7	0.00225375
52	0xbbb1908a	-0.0054188417
53	0xbaf1b92e	-0.0018442029
54	0x39230561	0.00015546895
55	0xba7d083f	-0.0009652413
56	0x3bfa8702	0.0076454887
57	0xbb799f67	-0.0038089396
58	0x38dcd8ae	0.00010530777
59	0x3b38a93c	0.0028177043
60	0xbabaf8fa	-0.0014264875
61	0xbbdfae96	-0.006826232
62	0xbb824eca	-0.0039766775
63	0xbc4d9e1b	-0.012549902

model.model.encoder.layers.0.linear1.bias f4 [64]
0	0xbdcb79d4	-0.09935346
1	0x3ddc88d9	0.10768289
2	0x3dc434ea	0.09580405
3	0xbdd6c8ef	-0.10487544
4	0xbd9ca255	-0.0764815
5	0xbd15b71f	-0.03655159
6	0xbd98f5ad	-0.07468734
7	0xbd05a8f8	-0.032631844
8	0x3dea60d6	0.11444251
9	0x3c6d8389	0.014496692
10	0xbc2b7d45	-0.010466878
11	0x3d9f72c5	0.077855624
12	0x3c9a2e5b	0.018820932
13	0x3cd86abb	0.02641808
14	0xbd3fe6c6	-0.046850942
15	0x3c713129	0.014721193
16	0x3df94518	0.12171382
17	0xbd24074e	-0.04004603
18	0x3c45ef87	0.012081034
19	0x3d8266f9	0.06367297
20	0x3d0e9f19	0.034819696
21	0x3cced152	0.025246296
22	0xbdc1df28	-0.09466392
23	0x3cd27996	0.025692742
24	0x3c167eb1	0.009185479
25	0x3db3ddb2	0.087825194
26	0xbca1ad5f	-0.01973599
27	0xbcb8a740	-0.022540689
28	0xbd3f6045	-0.04672267
29	0xbd4fd5ec	-0.05074112
30	0xbdd7fa7a	-0.105458215
31	0x3daff7a4	0.085921556
32	0x3b6a6b19	0.0035769402
33	0xbdcf3c3f	-0.10118913
34	0x3daaf6f6	0.08347885
35	0x3dd5c648	0.1043821
36	0xbd1202ae	-0.035647087
37	0xbd1b46f8	-0.037909478
38	0x3c54f9f9	0.012999051
39	0xbd3b8a28	-0.045786053
40	0x3ca3ee48	0.020011082
41	0xbb59042b	-0.0033114057
42	0x3dcbe5eb	0.09955963
43	0xbd459f2f	-0.048247512
44	0x3db4e59c	0.08832857
45	0x3d8db064	0.069184095
46	0x3d889cf6	0.06670563
47	0x3d84baea	0.064809635
48	0xbd0e186f	-0.03469127
49	0xbbe307ab	-0.0069284043
50	0x3d7c9865	0.061668772
51	0x3dcbc741	0.09950114
52	0x3c44bcde	0.01200792
53	0xbdca38f7	-0.098741464
54	0x3d41b0d8	0.047287792
55	0xbdd30339	-0.10303349
56	0xbd4225c8	-0.047399312
57	0x3d020253	0.031740498
58	0x3d104046	0.035217546
59	0x3de0e496	0.10981099
60	0xbbc88268	-0.0061190613
61	0xbd31913f	-0.043351408
62	0x3d97979d	0.07401965
63	0x3da1bec6	0.07897715

model.model.encoder.layers.0.linear2.bias f4 [64]
0	0x3dbb0518	0.09131831
1	0x3d8a9a4d	0.06767712
2	0x3d8affd3	0.06787076
3	0x3df3d65e	0.11906122
4	0x3ca59fd5	0.020217815
5	0x3cf8958f	0.030344753
6	0x3c0a66c2	0.008447351
7	0xbd482eb9	-0.048872683
8	0x3dc89dbc	0.097957104
9	0x3db66b8c	0.08907232
10	0xbd3176fa	-0.043326356
11	0xbdc5f4d5	-0.09665839
12	0xbd813b6b	-0.06310161
13	0xbdfbc0a0	-0.122926
14	0xbd1c5eae	-0.03817623
15	0xbd5e9033	-0.054336738
16	0x3d781d17	0.060574617
17	0x3d4296b8	0.047507018
18	0xbcb7bbea	-0.022428472
19	0xbcfd39d9	-0.030911373
20	0xbd6b496c	-0.057443067
21	0x3d38273e	0.0449593
22	0xbdb8f721	-0.09031511
23	0xbd56f92e	-0.05248373
24	0xbdd7164a	-0.10502298
25	0xbd8894bb	-0.06668993
26	0x3d868267	0.06567841
27	0xbd071287	-0.032976653
28	0x3dc7219a	0.09723206
29	0xbcad79de	-0.021176275
30	0x3c8b724f	0.01702228
31	0x3dd594ca	0.1042877
32	0xbcd24286	-0.025666486
33	0xbc59c37e	-0.013291238
34	0xbdcc27ef	-0.09968554
35	0xbd3f5547	-0.046712186
36	0x3b7faa25	0.0039011326
37	0xbdeab2ac	-0.1145986
38	0x3dd759de	0.10515188
39	0xbcb434e2	-0.021997873
40	0x3dc3db8c	0.095633596
41	0xbccef03e	-0.02526104
42	0xbc52c6d1	-0.012864784
43	0xbcae7ff4	-0.021301247
44	0xbc90fda3	-0.017699068
45	0x3c44beef	0.012008413
46	0x3cd917a8	0.026500538
47	0x3d2ba6ed	0.04190724
48	0xbbb135e1	-0.005408034
49	0x3d959433	0.073036574
50	0x3db5f81c	0.08885214
51	0x3cdc77c8	0.026912585
52	0xbdfaa0cc	-0.12237701
53	0xbd6d58d1	-0.05794603
54	0x3d855489	0.065102644
55	0x3d1bba7b	0.03801964
56	0xbc17d076	-0.00926601
57	0xbdcaf2a6	-0.09909563
58	0xbdf83b46	-0.121206805
59	0x3d1dc26c	0.038515493
60	0x3cdc790d	0.02691319
61	0xbc821c93	-0.015882766
62	0x3de09911	0.10966695
63	0xbd89246e	-0.066964015

model.model.encoder.layers.0.norm1.weight f4 [64]
0	0x3f739ae9	0.9515825
1	0x3f6f1d71	0.934043
2	0x3f72ae38	0.94797087
3	0x3f7346e6	0.9503006
4	0x3f7201ea	0.9453417
5	0x3f6e3e26	0.9306358
6	0x3f76b73e	0.96373355
7	0x3f7167a5	0.94298774
8	0x3f7af5b7	0.9803118
9	0x3f787a0f	0.97061247
10	0x3f7dfb29	0.99211365
11	0x3f760177	0.96095985
12	0x3f7ab56f	0.97933096
13	0x3f76e154	0.96437573
14	0x3f79d881	0.97595984
15	0x3f7a5239	0.9778171
16	0x3f7c5913	0.98573416
17	0x3f7f9a67	0.99844974
18	0x3f76ed47	0.96455806
19	0x3f78edac	0.9723766
20	0x3f76e943	0.9644968
21	0x3f77342d	0.9656399
22	0x3f7b365c	0.9812982
23	0x3f780c1f	0.96893495
24	0x3f76230a	0.96147215
25	0x3f75749a	0.95881045
26	0x3f7929a7	0.9732918
27	0x3f76d3d4	0.96416974
28	0x3f76dfb0	0.9643507
29	0x3f7a2fbb	0.9772908
30	0x3f7a01b8	0.9765887
31	0x3f7b8498	0.98249197
32	0x3f79f4ac	0.97638965
33	0x3f79e975	0.9762185
34	0x3f8045f3	1.0021347
35	0x3f7b7fd5	0.9824193
36	0x3f761c3a	0.9613682
37	0x3f773568	0.96565866
38	0x3f79a8ee	0.9752339
39	0x3f7c2f69	0.9850984
40	0x3f7a86ee	0.97862136
41	0x3f882cf7	1.0638722
42	0x3f75be52	0.9599353
43	0x3f7767c2	0.96642697
44	0x3f778c6c	0.9669864
45	0x3f7d3282	0.98905194
46	0x3f7e1ec8	0.9926572
47	0x3f7b5e52	0.98190796
48	0x3f751e37	0.9574923
49	0x3f78e5d6	0.972257
50	0x3f7a3569	0.9773775
51	0x3f79984b	0.97498006
52	0x3f79a875	0.9752267
53	0x3f774bd6	0.9660009
54	0x3f79b5db	0.97543114
55	0x3f781ae7	0.9691605
56	0x3f76ac68	0.9635682
57	0x3f7977ea	0.974486
58	0x3f7def23	0.9919302
59	0x3f79f383	0.97637194
60	0x3f77e604	0.9683535
61	0x3f76d214	0.96414304
62	0x3f76c5a4	0.96395326
63	0x3f784d56	0.96993005

model.model.encoder.layers.0.norm1.bias f4 [64]
0	0x3b91a64b	0.0044448725
1	0x3b68b6c8	0.0035509337
2	0xbbaea9fd	-0.005330323
3	0x3b04def0	0.0020274483
4	0x3b6476b0	0.0034860782
5	0x3b9db1c5	0.0048124515
6	0xbb9267f9	-0.004467961
7	0x3bd1ddf7	0.006404634
8	0xbb9ba7b0	-0.0047502145
9	0x3baa925a	0.0052054347
10	0xbaca851a	-0.0015451044
11	0xbc242285	-0.010017996
12	0x3c556205	0.013023858
13	0x3ac07418	0.0014683036
14	0x38b47e43	8.606587e-05
15	0x3b88c362	0.004173682
16	0xbc0e045d	-0.0086680325
17	0xba2586f2	-0.0006314359
18	0x3ba4fc3c	0.0050349515
19	0xbb8b6554	-0.0042540226
20	0x3bc27e0a	0.005935435
21	0xbb5a40f4	-0.0033302875
22	0xbbba3bc7	-0.0056833955
23	0x3a854d93	0.0010170214
24	0x3c89e338	0.01683198
25	0xbc1a3793	-0.009412664
26	0x3bb6693e	0.005566745
27	0xbc051518	-0.008122705
28	0x3bfba4a8	0.0076795407
29	0x3b34753c	0.0027535697
30	0xbbab0a2d	-0.005219719
31	0x3af6f2db	0.0018840687
32	0x3adc0c81	0.0016788394
33	0x3a64663d	0.00087127445
34	0x3c257878	0.010099523
35	0xbbd464a9	-0.006481726
36	0x3bb5aab0	0.005544029
37	0xbc11e803	-0.008905414
38	0x3acb8045	0.0015525898
39	0xbc0e225d	-0.008675185
40	0x3b432d36	0.0029781586
41	0xbc9b42f8	-0.018952832
42	0x3c38ccfb	0.01127934
43	0xbb94532b	-0.004526516
44	0x3bd48d9a	0.006486607
45	0xba59f958	-0.0008315048
46	0xbb8986db	-0.004196984
47	0xbb976d59	-0.0046211896
48	0xb9ad41e6	-0.0003304623
49	0xbbee99dd	-0.0072815255
50	0xbbd71653	-0.0065639406
51	0x3b6bfab7	0.0036007592
52	0xbbeb8a1d	-0.0071880952
53	0xb7b4b7ed	-2.154332e-05
54	0x39cb0425	0.00038722265
55	0x3a80525b	0.0009790169
56	0x3c1c2e15	0.009532471
57	0xbb8c3833	-0.0042791604
58	0xba0c248f	-0.0005346024
59	0x3b7bcbd7	0.0038421059
60	0xbb07a9f0	-0.0020700656
61	0xbbdf3f72	-0.006812983
62	0xbbd36ac3	-0.006451936
63	0xbc5c3b6b	-0.013441901

model.model.encoder.layers.0.norm2.weight f4 [64]
0	0x3f73bb33	0.9520752
1	0x3f70b4f8	0.94026136
2	0x3f74ee31	0.9567595
3	0x3f7424be	0.95368564
4	0x3f73d0cb	0.9524047
5	0x3f6fbb82	0.9364549
6	0x3f78fc26	0.9725975
7	0x3f70498c	0.93862224
8	0x3f7abf42	0.97948086
9	0x3f7b7d5d	0.98238164
10	0x3f806ab2	1.0032561
11	0x3f794ab3	0.97379607
12	0x3f7b4575	0.9815286
13	0x3f76493f	0.96205515
14	0x3f78a86c	0.9713199
15	0x3f7993be	0.9749106
16	0x3f7cfeab	0.9882609
17	0x3f7c5a55	0.98575336
18	0x3f7680f2	0.96290505
19	0x3f78d445	0.971989
20	0x3f77b7ef	0.96765035
21	0x3f775cef	0.9662618
22	0x3f7b7463	0.9822447
23	0x3f7997f1	0.9749747
24	0x3f7827e0	0.96935844
25	0x3f76169b	0.96128243
26	0x3f7c4dbd	0.9855612
27	0x3f76ac6e	0.96356857
28	0x3f813ecd	1.009729
29	0x3f7a94c2	0.97883236
30	0x3f7bdea6	0.9838661
31	0x3f7ad8a8	0.9798684
32	0x3f79d397	0.97588485
33	0x3f7d0ae7	0.9884476
34	0x3f7dc936	0.9913515
35	0x3f88864a	1.0665982
36	0x3f780b70	0.9689245
37	0x3f7b411c	0.98146224
38	0x3f7d2b79	0.9889446
39	0x3f7cf401	0.9880982
40	0x3f78f9d3	0.972562
41	0x3f7c92ea	0.98661673
42	0x3f763b80	0.9618454
43	0x3f78c605	0.97177154
44	0x3f754b9b	0.9581849
45	0x3f7c2a0c	0.9850166
46	0x3f7b93a1	0.9827214
47	0x3f7b93e3	0.9827253
48	0x3f775a41	0.9662209
49	0x3f7caf22	0.9870473
50	0x3f7ae2c8	0.9800229
51	0x3f79cf25	0.975817
52	0x3f7a52ad	0.97782403
53	0x3f77783c	0.9666784
54	0x3f784751	0.9698382
55	0x3f783d75	0.96968776
56	0x3f796260	0.97415733
57	0x3f78c2a5	0.97172004
58	0x3f7dd7a2	0.99157155
59	0x3f7a03f9	0.9766231
60	0x3f792837	0.9732699
61	0x3f78ea25	0.97232276
62	0x3f7ca8aa	0.9869486
63	0x3f7ca61c	0.9869096

model.model.encoder.layers.0.norm2.bias f4 [64]
0	0x3b9f34cd	0.0048585893
1	0xbbb8949d	-0.0056329505
2	0xbc04e449	-0.008111068
3	0x3b919f51	0.004444041
4	0xbb256d30	-0.0025242083
5	0x3b9540d6	0.004554848
6	0xbbf7f471	-0.0075669815
7	0x3c2e6283	0.010643604
8	0xbbc80ff2	-0.0061054165
9	0x3c08436e	0.008316858
10	0xbaa3d201	-0.0012498499
11	0xbc1557ff	-0.009115218
12	0x3c702c02	0.01465893
13	0x3a8aebb5	0.0010598811
14	0x3afe6e40	0.0019411519
15	0x3bc78a2f	0.006089471
16	0xbc2332e1	-0.009960861
17	0xbb21cc3b	-0.0024688381
18	0x3be9e859	0.0071382937
19	0xbbfc2f6b	-0.0076960823
20	0x3bcb13b4	0.006197417
21	0xbb05d1b0	-0.0020419173
22	0xbbdb671f	-0.0066956426
23	0x3b8ba78a	0.0042619156
24	0x3c3349ce	0.010942889
25	0xbbf99e5f	-0.0076177563
26	0x3baf9dff	0.005359411
27	0xbb8e2edd	-0.0043390826
28	0x3bed9a8e	0.0072510904
29	0x3bc28c53	0.005937138
30	0xbbe88666	-0.0070960997
31	0x3af67b0e	0.0018804984
32	0x3b8d4a1e	0.004311814
33	0x3c56b45f	0.013104527
34	0x3c8eb468	0.017420009
35	0xbb95d3b2	-0.004572355
36	0x3bc19e98	0.0059087984
37	0xbc26132f	-0.01013641
38	0x3ac6445a	0.0015126572
39	0xbc225a07	-0.0099091595
40	0xba78e96c	-0.0009495232
41	0xbc998d11	-0.018744024
42	0x3be612e8	0.007021297
43	0x3ad39ac2	0.0016144144
44	0xbbb01282	-0.0053733
45	0x3b143783	0.0022616095
46	0xbbb6db9f	-0.00558038
47	0xbba74189	-0.005104248
48	0xbb987064	-0.00465207
49	0xbc013676	-0.00788652
50	0xbc13c1ba	-0.009018356
51	0x3b8398c8	0.0040160157
52	0xbc27b704	-0.010236505
53	0x3a749705	0.0009330365
54	0x3b0b19e2	0.0021225144
55	0x3ad9ff08	0.0016631791
56	0x3c480e62	0.01221046
57	0xbb9cb2aa	-0.0047820406
58	0xba5d7b8e	-0.0008448892
59	0x3baada3b	0.0052140034
60	0xbbbd3039	-0.005773571
61	0xbbdb8093	-0.006698677
62	0xbc16cd05	-0.009204154
63	0xbc453656	-0.0120368805

model.model.encoder.layers.1.self_attn.in_proj_bias f4 [192]
0	0x3d4030e7	0.046921637
1	0xbcc30956	-0.023808163
2	0xbc883797	-0.01662807
3	0xbd3a8750	-0.0455392
4	0xbc871d33	-0.016493415
5	0xbd41b9e6	-0.047296427
6	0xbd1835bb	-0.037160616
7	0xbcc8a118	-0.024490878
8	0xbd31f65c	-0.043447837
9	0xbd2c4fe6	-0.042068385
10	0xbd83836c	-0.06421551
11	0xbcd99597	-0.026560588
12	0x3c904ad6	0.01761381
13	0xbcfdcb2e	-0.030980673
14	0xbd11c591	-0.035588805
15	0x3b7465f6	0.0037292219
16	0x3bbecf86	0.0058230786
17	0xbbbaf8af	-0.005705915
18	0xbca8e4d2	-0.020616923
19	0x3cec8ee2	0.028876726
20	0x3c319500	0.010838747
21	0xbd67403d	-0.056457747
22	0x3cdca4ab	0.026933989
23	0xbd3a0f65	-0.045424838
24	0x3cb50f69	0.022102075
25	0x3acd384d	0.0015657038
26	0xbd02226e	-0.031771116
27	0x3bc31bc6	0.0059542386
28	0x3ba657d3	0.0050763874
29	0xbd5f85f3	-0.054571103
30	0x3cec7a58	0.028866932
31	0xbb99c8ab	-0.004693111
32	0xbd57262b	-0.052526634
33	0x3d7260d3	0.05917437
34	0xbcacb975	-0.021084527
35	0x3c2fd728	0.01073245
36	0xbd0c00be	-0.034180395
37	0x3c7dbd74	0.015487064
38	0x3d48a592	0.048986025
39	0xbce813a6	-0.028329682
40	0x3d3f9193	0.04676969
41	0x3d1bddaa	0.038053192
42	0xbd5a7937	-0.053338256
43	0xbb859459	-0.0040765223
44	0xbd064b62	-0.032786734
45	0xbd85ba10	-0.06529629
46	0xbccad3e1	-0.024759235
47	0xbcd32826	-0.02577598
48	0x3c3d0e02	0.011538984
49	0x3c0ae608	0.008477695
50	0x3c5b3e4e	0.013381554
51	0xbc8576f1	-0.016292067
52	0xbab67063	-0.0013918992
53	0x3b920531	0.0044561853
54	0xbc3c9145	-0.011509244
55	0xbab782b8	-0.0014000749
56	0x3d0ae0ed	0.033905912
57	0x3bcc8713	0.006241688
58	0xbcbe072f	-0.023196785
59	0xbd02b508	-0.031910926
60	0xbd1bdda5	-0.038053174
61	0xbca42819	-0.020038651
62	0x3beb36b5	0.0071781524
63	0x3c225f91	0.00991048
64	0xb7fd99dc	-3.0231597e-05
65	0x3857c0fe	5.1439732e-05
66	0x377f0190	1.5199548e-05
67	0x382ab93d	4.0703675e-05
68	0x37d872d7	2.5802683e-05
69	0x36a98768	5.052356e-06
70	0xb7a97012	-2.0198557e-05
71	0x360d9ffb	2.1103758e-06
72	0x34e1c996	4.205619e-07
73	0x3607b2f5	2.0220734e-06
74	0x382ed07a	4.167899e-05
75	0x36be9e81	5.6808935e-06
76	0xb7391de7	-1.10338215e-05
77	0x37a7eec3	2.0019133e-05
78	0xb81c23ca	-3.722663e-05
79	0xb6a1444a	-4.806124e-06
80	0xb6b7d6dc	-5.478838e-06
81	0xb7169c5c	-8.977102e-06
82	0x3664bed1	3.4085717e-06
83	0xb651e672	-3.1277564e-06
84	0x35e79513	1.7254227e-06
85	0x365abfeb	3.2596242e-06
86	0x3789c07c	1.6421305e-05
87	0xb7844821	-1.5769214e-05
88	0xb7c48364	-2.3426204e-05
89	0x36d01624	6.2014606e-06
90	0x371eac1d	9.457607e-06
91	0x364634d0	2.953504e-06
92	0x3624819b	2.4513345e-06
93	0xb7b67fbe	-2.1755575e-05
94	0x3725c62c	9.880907e-06
95	0x34461315	1.8447129e-07
96	0x380f7424	3.420202e-05
97	0x37126d5b	8.727739e-06
98	0x372832e4	1.0025429e-05
99	0xb66a956a	-3.4955688e-06
100	0x366c3657	3.519837e-06
101	0xb6bf6128	-5.703554e-06
102	0x37e1ddb9	2.6925338e-05
103	0x36d04668	6.2070794e-06
104	0x36c9aa79	6.0101124e-06
105	0xb816496e	-3.5831174e-05
106	0x3787e12a	1.6198104e-05
107	0xb7584916	-1.289162e-05
108	0xb6bdb63d	-5.6538543e-06
109	0x36d127d3	6.2333215e-06
110	0xb64fc478	-3.0959764e-06
111	0xb68dd8b4	-4.227355e-06
112	0xb766d88f	-1.375949e-05
113	0x374cdb9b	1.2210478e-05
114	0x3593e19e	1.1018017e-06
115	0x361fa45c	2.3788516e-06
116	0x360a1a7c	2.0579018e-06
117	0x36656617	3.4183083e-06
118	0xb6d449f3	-6.326701e-06
119	0xb6892a7b	-4.0878635e-06
120	0x370535d9	7.939955e-06
121	0xb795d37f	-1.786067e-05
122	0xb6af14b8	-5.2178184e-06
123	0x37bee72f	2.2757418e-05
124	0x3732c4d6	1.0655456e-05
125	0x37b69aa2	2.1768097e-05
126	0xb6b7d869	-5.4790185e-06
127	0xb6fce8b7	-7.537277e-06
128	0xbbb61f77	-0.00555795
129	0xbc034adc	-0.008013453
130	0xba8098df	-0.0009811184
131	0x3b9c5beb	0.0047716997
132	0xbbc9b5ee	-0.006155721
133	0xbbfb2c77	-0.0076652127
134	0xbc6f9b99	-0.0146245
135	0xbb07679b	-0.002066112
136	0x3b5932a2	0.0033141752
137	0x3afaaf63	0.0019125756
138	0x3b50f723	0.0031885586
139	0x3c382001	0.011238099
140	0x3beb2f62	0.0071772793
141	0x3bd56ce1	0.0065132235
142	0xb936866d	-0.0001740695
143	0xba2ba1cf	-0.00065472437
144	0x3c181838	0.009283118
145	0xbb890530	-0.0041815266
146	0xbbaad3c3	-0.0052132322
147	0x3ba59c1f	0.0050540115
148	0xba62cb5e	-0.000865152
149	0xbbe9409d	-0.007118298
150	0x3b1ca2ae	0.0023900676
151	0x3b17fb90	0.0023190714
152	0xbba65a64	-0.0050766934
153	0x3ae51386	0.0017477132
154	0xbb9489b6	-0.004533018
155	0xbc50db57	-0.012747607
156	0x3c195199	0.009357833
157	0xbaaaa90e	-0.0013020353
158	0xbc1affb7	-0.009460381
159	0xbb194b98	-0.0023391005
160	0xbb84c47a	-0.004051742
161	0x3b79df8a	0.0038127624
162	0x3c275b49	0.010214635
163	0xbc70ce79	-0.014697664
164	0xbb5d065e	-0.003372572
165	0xbb2b400c	-0.0026130704
166	0x3a9cecf3	0.0011972472
167	0xbb64fb85	-0.0034939956
168	0xbc0ab471	-0.008465872
169	0xbb6770a6	-0.0035314946
170	0x3c167d7a	0.009185189
171	0x3c38587f	0.011251568
172	0xbb172266	-0.0023061275
173	0xbc403d66	-0.0117333885
174	0xbab41574	-0.0013739304
175	0x3b8d636f	0.004314832
176	0xbb72bb30	-0.0037037842
177	0xbbf28e87	-0.0074022445
178	0x3b842c54	0.0040336046
179	0x3bfcfff2	0.0077209407
180	0xbbb87614	-0.0056293104
181	0xbbc8a825	-0.00612356
182	0x3c0c6ee4	0.00857136
183	0x3a1559ca	0.00056972785
184	0x3bef0012	0.0072937096
185	0xbc1fffa9	-0.009765544
186	0xbbd301c9	-0.006439422
187	0xbb836f4e	-0.0040110713
188	0xbab84d62	-0.0014061148
189	0x3c15e49b	0.009148742
190	0xbb99a53c	-0.004688887
191	0xbbd7695d	-0.0065738396

model.model.encoder.layers.1.self_attn.out_proj.weight f4 [64, 64]
0	0x3da12662	0.07868649
1	0xbd83150b	-0.06400498
2	0xbdae0119	-0.08496303
3	0x3d911956	0.070849106
4	0xbdaafa89	-0.08348567
5	0x3d86c797	0.065810375
6	0xbd8f2865	-0.069901265
7	0x3dea16df	0.114301436
8	0x3d8c5103	0.06851389
9	0x3da00e18	0.07815188
10	0x3d801252	0.06253494
11	0x3d5486a8	0.05188623
12	0xbdaed811	-0.08537305
13	0x3dce3a04	0.10069659
14	0xbbb5ca06	-0.0055477647
15	0xbdc6c3df	-0.09705328
16	0xbd88eed3	-0.06686177
17	0xbda0e481	-0.07856084
18	0xbd0b440f	-0.034000453
19	0xbc9762c5	-0.018479714
20	0x3ac588f1	0.0015070719
21	0x3da998fb	0.08281132
22	0xbdcb6f51	-0.09933341
23	0x3d74a315	0.05972584
24	0xbc505dd5	-0.012717684
25	0x3dc82bcb	0.09773978
26	0x3cdd5013	0.027015721
27	0xbd950db9	-0.07278008
28	0xbcd1fd02	-0.025633339
29	0xbdd92de8	-0.10604459
30	0x3de1c094	0.110230595
31	0xbd2c0257	-0.04199442
32	0xbe113f33	-0.14184265
33	0xbd04818b	-0.032350104
34	0x3c2fc641	0.01072842
35	0xbde750f8	-0.112947404
36	0xbc6791ef	-0.014133914
37	0xbdd21535	-0.10257951
38	0x3c58f6a2	0.013242396
39	0xbd2fdd0c	-0.042935416
40	0xbd2d5ad3	-0.042322945
41	0x3c6d4e9f	0.014484077
42	0xbd713035	-0.058883864
43	0xbc11c62d	-0.008897346
44	0x3c2875f5	0.010282029
45	0xbd769a2e	-0.06020563
46	0x3ca3b76b	0.019984921
47	0x3cf63da8	0.030058697
48	0xbc3bc4ad	-0.011460465
49	0xbc098cc3	-0.008395377
50	0x3da5497b	0.08070656
51	0x3d39e38c	0.04538302
52	0xbdd15d55	-0.1022288
53	0x3d8d61e6	0.06903438
54	0xbd96038e	-0.07324897
55	0xbc87569d	-0.016520793
56	0xbdc2643d	-0.09491775
57	0xbc845ae6	-0.016156625
58	0xbd334bb5	-0.04377337
59	0xbdbb7290	-0.091527104
60	0xbcaf5f3e	-0.02140772
61	0x3d5cf602	0.05394555
62	0xbdce8eac	-0.10085806
63	0x3b4a5e18	0.0030878838
64	0x3d89b17d	0.06723306
65	0xbcb611a2	-0.022225205
66	0x3ce0a5f7	0.027422888
67	0x3db07c2c	0.08617434
68	0xbda23e23	-0.07922008
69	0x3c8ad8fc	0.01694917
70	0xbc3dbd6d	-0.011580807
71	0xbd5151da	-0.05110345
72	0x3d8a3a0b	0.06749352
73	0x3cd414c7	0.025888814
74	0x3ddfd35e	0.10928987
75	0x3d5d60e9	0.0540475
76	0xbd350f9c	-0.04420434
77	0x3dc98f91	0.09841836
78	0xbd7a3cfb	-0.06109331
79	0x3de3fe6e	0.11132513
80	0x3dc93fb9	0.09826607
81	0xbda1a618	-0.07893008
82	0xbd38408f	-0.044983443
83	0xbdadb795	-0.08482281
84	0x3d5eed68	0.054425627
85	0x3de950ba	0.113923505
86	0x3dbf6a98	0.09346503
87	0x3d5ab0bc	0.053391203
88	0xbd87b298	-0.06625861
89	0xbd68dcc6	-0.05685117
90	0x3de4dbfa	0.1117477
91	0xbc2e89b6	-0.01065295
92	0x3dd90a8b	0.10597714
93	0xbb236a45	-0.0024935168
94	0x3d6eeedf	0.058333274
95	0xbddbed87	-0.10738664
96	0xbd9e1d06	-0.077203795
97	0xbc538a6e	-0.012911422
98	0x3c7d9e82	0.015479686
99	0x3dc13e04	0.09435657
100	0xbde80c59	-0.1133048
101	0xbd81197e	-0.063036904
102	0x3dfb02d0	0.12256396
103	0xbe101fef	-0.14074682
104	0x3df0d4fd	0.11759374
105	0xbddd1f00	-0.107969284
106	0xbd3cf690	-0.046133578
107	0x3df21835	0.118210234
108	0x3d5c1a65	0.05373611
109	0x3dc7ad43	0.09749844
110	0x3d557576	0.052113973
111	0xbdc24b73	-0.09487047
112	0x3cd2e736	0.025745016
113	0x3dc72d85	0.09725479
114	0x3e0247de	0.12722728
115	0xbc422fa0	-0.011852175
116	0xbd53e858	-0.051735252
117	0xbdc145e8	-0.09437162
118	0xbd73f69f	-0.059561368
119	0x3c582b5b	0.0131939305
120	0x3d03b5a6	0.032155655
121	0x3d54c5c5	0.05194642
122	0xbd99904a	-0.07498224
123	0x3d89d57c	0.06730172
124	0xbdd8253c	-0.10553977
125	0xbcd57287	-0.026055587
126	0xbc99fda7	-0.018797709
127	0x3df30473	0.11866083
128	0x3da55ee2	0.08074738
129	0xbd69058d	-0.05689006
130	0x3c74c13e	0.014938651
131	0xbcf5e3a3	-0.030015772
132	0x3dbe1700	0.09281731
133	0x3dbf3ca7	0.093377404
134	0x3dbeea14	0.093219906
135	0x3d4f1ae6	0.05056276
136	0xbd7f3d20	-0.062314153
137	0x3cd455a7	0.025919748
138	0xbc987605	-0.018610964
139	0xbd251a42	-0.040308245
140	0xbdb58840	-0.08863878
141	0x3da38cf6	0.079858705
142	0x3db22079	0.086976
143	0x3c3b99ae	0.011450214
144	0xbded2b86	-0.11580567
145	0xbc86385b	-0.016384294
146	0xbd81a952	-0.063311234
147	0x3dc23862	0.094834104
148	0x3c341151	0.010990457
149	0x3b8a3d71	0.00421875
150	0x3d837007	0.06417852
151	0xbda56a28	-0.08076888
152	0x3d9d8e65	0.07693175
153	0xbe0b8810	-0.13626122
154	0xbdb02d6a	-0.08602412
155	0xbd08d5db	-0.033407073
156	0xbd44e9f0	-0.048074663
157	0xbe27d0e0	-0.16388273
158	0x3dfd4aa6	0.12367754
159	0x3d2b765f	0.041860934
160	0x3d8bc8f4	0.06825438
161	0x3d00cca5	0.031445164
162	0xbd9eecf5	-0.0776004
163	0x3dda4e74	0.10659495
164	0x3d3488a9	0.04407564
165	0x3d9da11f	0.07696747
166	0xbd3762be	-0.044771902
167	0x3deba86e	0.11506735
168	0xbca1de6c	-0.01975938
169	0xbdc2945c	-0.095009536
170	0x3dcffd80	0.10155773
171	0x3de61d39	0.112360425
172	0x3de17a15	0.110096134
173	0x3bd45f09	0.0064810556
174	0xbd7ed52d	-0.06221502
175	0x3da1864f	0.078869455
176	0xbd7b5309	-0.061358485
177	0x3d164536	0.0366871
178	0x3ad16285	0.0015974796
179	0xbd7e6d89	-0.06211618
180	0xbdbcf17b	-0.09225746
181	0xbca377be	-0.019954558
182	0xbdd441c9	-0.1036411
183	0xbd42722c	-0.047472164
184	0x3dd3e45b	0.1034629
185	0x3c9678c9	0.018368142
186	0xbd2acf50	-0.041701615
187	0x3c8752cb	0.016518971
188	0xbd700eb4	-0.058607772
189	0x3dbac214	0.09119049
190	0xbda2d2b6	-0.07950346
191	0xbd16f195	-0.036851484
192	0xbd7f9a50	-0.062403023
193	0x3c90d5bd	0.017680043
194	0xbda2df3c	-0.07952735
195	0x3d8043a1	0.06262899
196	0x3d2829f1	0.041055623
197	0x3bfcb620	0.0077121407
198	0x3dbf4f18	0.09341258
199	0x3d098e82	0.03358317
200	0x3d2bf7cd	0.041984368
201	0xbdea63b5	-0.11444799
202	0x3cb52214	0.022110976
203	0xbd909769	-0.07060129
204	0xbdb65ec7	-0.08904796
205	0xbcb25aed	-0.021771872
206	0xbbc4fb9d	-0.00601144
207	0xbcecc45b	-0.028902223
208	0x3dd1b553	0.10239663
209	0x3d4fb61e	0.05071079
210	0x3ced7a60	0.028989017
211	0x3c098510	0.008393541
212	0xbd7094d5	-0.058735687
213	0xbd71afab	-0.05900542
214	0x3dacd659	0.08439321
215	0x3d446248	0.04794529
216	0xbd972b01	-0.07381249
217	0xbdc3ba38	-0.09557003
218	0xbd0c36c5	-0.03423192
219	0x3d513991	0.05108029
220	0xbd4bd147	-0.04976013
221	0xbd91ea5a	-0.07124777
222	0xbb705ff2	-0.0036678282
223	0x3d85d695	0.06535069
224	0xbdae27b7	-0.08503669
225	0x3da11182	0.078646675
226	0xbda48d52	-0.08034767
227	0x3d8c1ab7	0.06841033
228	0x3df02859	0.11726446
229	0xbd754b36	-0.05988618
230	0x3d8c32ef	0.06845652
231	0xbe099f29	-0.13439621
232	0xbdb16f3b	-0.08663794
233	0x3dc1fea8	0.094724
234	0xbd4f549a	-0.05061779
235	0x3d64dd6f	0.055875238
236	0xbc9dec34	-0.01927767
237	0x3c885492	0.016641889
238	0x3d9f036a	0.07764323
239	0xbd9db575	-0.07700626
240	0xbe0a2664	-0.13491207
241	0x3c0bbbb1	0.008528636
242	0x3dea36ba	0.114362195
243	0x3cb49879	0.02204536
244	0xbd2df5da	-0.04247079
245	0xbcf4f367	-0.02990122
246	0x3d908400	0.07056427
247	0x3de1c77c	0.11024377
248	0x3d736309	0.05942062
249	0x3dd851a5	0.105624475
250	0xbaef15f9	-0.0018240801
251	0x3ca1433b	0.019685378
252	0xbc93f214	-0.018059768
253	0xbd797ea4	-0.06091179
254	0xbd12c770	-0.03583473
255	0xbcd76238	-0.026291952

model.model.encoder.layers.1.self_attn.out_proj.bias f4 [64]
0	0x3ba3a874	0.0049944464
1	0x3ba42547	0.0050093266
2	0xbc0158f6	-0.007894745
3	0x3b6da0ab	0.0036259096
4	0xbb0d7ba1	-0.002158858
5	0x3ba69700	0.0050839186
6	0xbbda22d8	-0.0066569857
7	0x3c3cd146	0.011524504
8	0xbbd18322	-0.006393806
9	0x3c457da6	0.012053883
10	0x39f55aae	0.00046797603
11	0xbc00973d	-0.007848558
12	0x3c307ed5	0.010772427
13	0x3b04b98a	0.0020252191
14	0x3bce9c70	0.00630527
15	0x3b9968a0	0.0046816617
16	0xbbbc4be6	-0.0057463525
17	0xbc0749cc	-0.008257341
18	0x3c44f3d1	0.012021021
19	0xbbe4f2ca	-0.0069869505
20	0x3be761fb	0.0070612407
21	0xbb46d285	-0.0030337882
22	0xbbbff527	-0.005858082
23	0x3b9607b9	0.0045785573
24	0x3c27e75a	0.01024803
25	0xbbe93dce	-0.0071179634
26	0x3baf4d7c	0.005349813
27	0xbc10014c	-0.008789372
28	0x3c276c17	0.010218642
29	0x3ba80b04	0.0051282663
30	0xbbb9fa7e	-0.005675613
31	0x3afc89b4	0.0019267113
32	0x3bc96866	0.0061464785
33	0x3c0679f5	0.008207788
34	0x3c5bb0ad	0.013408822
35	0xba5d8e76	-0.0008451709
36	0x3bb1a94f	0.0054217945
37	0xbc2668d0	-0.010156825
38	0x3a9d9851	0.0012023543
39	0xbbf05cdf	-0.00733529
40	0x3b4d72ea	0.0031349012
41	0xbc3cb710	-0.011518255
42	0x3bdec4e9	0.006798376
43	0xbbc6e714	-0.006070027
44	0xbbaf9421	-0.0053582345
45	0x3c1b1ec3	0.009467783
46	0xbb5a117d	-0.0033274584
47	0xbb986200	-0.0046503544
48	0xbb843d45	-0.004035624
49	0xbc14e7d6	-0.009088477
50	0xbbe01ea1	-0.0068395888
51	0x3b13a420	0.0022528246
52	0xbc04f542	-0.008115115
53	0x399e12c4	0.0003015009
54	0xba2eb959	-0.0006665192
55	0x3ace0993	0.0015719406
56	0x3c31bc6f	0.010848149
57	0xbb4074b9	-0.0029366447
58	0x3b83334a	0.004003917
59	0x3bb4a90f	0.0055133174
60	0xbb3ae6f0	-0.0028518997
61	0xbc04d8b1	-0.008108304
62	0xbc088343	-0.0083320765
63	0xbc215528	-0.009846963

model.model.encoder.layers.1.linear1.bias f4 [64]
0	0xbdd4ad32	-0.10384597
1	0x3db16370	0.08661544
2	0x3dc4dc5c	0.09612343
3	0xbddd746e	-0.10813223
4	0xbda4c267	-0.08044892
5	0xbd22309c	-0.03959714
6	0xbd91f816	-0.07127397
7	0xbd0f3e0f	-0.034971293
8	0x3dd2df68	0.102965176
9	0x3c99cc33	0.018774128
10	0xbc2afbdd	-0.010436025
11	0x3d99351e	0.074808344
12	0x3cabd6c4	0.020976432
13	0x3cceec27	0.02525909
14	0xbd381b69	-0.044948015
15	0x3c88977c	0.016673796
16	0x3ddafc81	0.106926925
17	0xbd4e5b09	-0.050379787
18	0x3cb7b7a7	0.02242644
19	0x3d7eb223	0.062181603
20	0x3d166264	0.036714926
21	0x3cb2cdae	0.021826591
22	0xbdca0db5	-0.09865896
23	0x3cb69b35	0.022290805
24	0x3cc20b79	0.023687111
25	0x3dbdb405	0.092628516
26	0xbca8c85b	-0.02060335
27	0xbcf0d676	-0.029399138
28	0xbd73cbc1	-0.059520487
29	0xbd155069	-0.03645364
30	0xbddfaf54	-0.10922113
31	0x3dcb3051	0.09921325
32	0x3c34fb4e	0.011046244
33	0xbddf2a52	-0.10896744
34	0x3dacbafa	0.084341004
35	0x3d9783b4	0.07398167
36	0xbd30a4c9	-0.0431259
37	0xbd85291d	-0.06501982
38	0x3c9edf21	0.019393506
39	0xbd30b4a2	-0.043141015
40	0x3c94595e	0.01810902
41	0xbc1ba76c	-0.009500366
42	0x3db998ae	0.090623245
43	0xbd474855	-0.048652966
44	0x3dbf6773	0.09345903
45	0x3d7e2d6a	0.06205503
46	0x3d3208f1	0.04346556
47	0x3d8fa154	0.07013193
48	0xbd0ee75a	-0.034888603
49	0xbb814ff2	-0.003946298
50	0x3d81c00d	0.06335459
51	0x3dcf347e	0.10117434
52	0x3bffb139	0.007803109
53	0xbdd34745	-0.10316328
54	0x3d0dbd4c	0.034604356
55	0xbde4c904	-0.11171153
56	0xbd30f752	-0.043204613
57	0x3ce389e7	0.027775718
58	0x3d172d82	0.036908634
59	0x3dd424a9	0.10358555
60	0xbb921158	-0.004457634
61	0xbd4b001c	-0.04956065
62	0x3d8c2d87	0.06844621
63	0x3da80d61	0.08205677

model.model.encoder.layers.1.linear2.bias f4 [64]
0	0x3dbcb1a8	0.09213573
1	0x3d95ca3e	0.07313965
2	0x3d8ca49f	0.068673365
3	0x3df48abe	0.119405255
4	0x3c40f626	0.011777436
5	0x3d0542ae	0.032534294
6	0x3bce08a8	0.006287653
7	0xbd596c93	-0.05308206
8	0x3dc3b320	0.0955565
9	0x3dbb67ea	0.091506794
10	0xbd33ad57	-0.04386648
11	0xbdc48c20	-0.09597039
12	0xbd83559c	-0.06412813
13	0xbde8c9d8	-0.11366624
14	0xbcba61de	-0.022751745
15	0xbd511977	-0.051049676
16	0x3d790bfd	0.06080245
17	0x3d2ae6ab	0.04172389
18	0xbcba37b1	-0.022731634
19	0xbd03711a	-0.032090284
20	0xbd6588d6	-0.0560387
21	0x3d353cb2	0.044247337
22	0xbdbde462	-0.09272076
23	0xbd49b3c0	-0.04924369
24	0xbdd7dbdb	-0.10539981
25	0xbd874718	-0.06605357
26	0x3d8647fa	0.06556697
27	0xbd0d0720	-0.034430623
28	0x3dc860db	0.09784099
29	0xbca59ac4	-0.0202154
30	0x3c842b52	0.016133938
31	0x3dd7d479	0.10538573
32	0xbca6628f	-0.020310668
33	0xbc5542e2	-0.013016434
34	0xbdd33e62	-0.10314633
35	0xbd18012d	-0.037110496
36	0x3b81883d	0.0039530084
37	0xbde7fb90	-0.113272786
38	0x3dd81c0c	0.105522245
39	0xbcb143c8	-0.021638766
40	0x3dc4da62	0.09611966
41	0xbc994505	-0.018709669
42	0xbc40a1a1	-0.011757285
43	0xbca49bf1	-0.02009389
44	0xbca671b2	-0.020317886
45	0x3cd04593	0.0254238
46	0x3ce4e268	0.02793999
47	0x3d282f9a	0.04106102
48	0xbc1058dc	-0.008810248
49	0x3d913385	0.07089905
50	0x3daf5d7a	0.08562751
51	0x3ccabd6c	0.024748527
52	0xbdfa296f	-0.12214934
53	0xbd674d98	-0.056470484
54	0x3d810754	0.06300226
55	0x3d1cc3b4	0.038272575
56	0xbc289c14	-0.010291118
57	0xbdc83f6d	-0.097777225
58	0xbde1804b	-0.11010798
59	0x3d210bec	0.03931801
60	0x3cbcba41	0.023038032
61	0xbc932932	-0.01796398
62	0x3de0ae47	0.10970741
63	0xbd875a5c	-0.066090316
